{"module": "keras.src.models.sequential", "class_name": "Sequential", "config": {"name": "sequential", "trainable": true, "dtype": "float32", "layers": [{"module": "keras.src.layers.core.input_layer", "class_name": "InputLayer", "config": {"batch_shape": [null, 32, 32, 3], "dtype": "float32", "sparse": false, "name": "input_layer"}, "registered_name": "InputLayer"}, {"module": "keras.src.layers.convolutional.conv2d", "class_name": "Conv2D", "config": {"name": "conv2d", "trainable": true, "dtype": "float32", "filters": 32, "kernel_size": [3, 3], "strides": [1, 1], "padding": "valid", "data_format": "channels_last", "dilation_rate": [1, 1], "groups": 1, "activation": "relu", "use_bias": true, "kernel_initializer": {"module": "keras.src.initializers.random_initializers", "class_name": "GlorotUniform", "config": {"seed": null}, "registered_name": "GlorotUniform"}, "bias_initializer": {"module": "keras.src.initializers.constant_initializers", "class_name": "Zeros", "config": {}, "registered_name": "Zeros"}, "kernel_regularizer": null, "bias_regularizer": null, "activity_regularizer": null, "kernel_constraint": null, "bias_constraint": null}, "registered_name": "Conv2D", "build_config": {"input_shape": [null, 32, 32, 3]}}, {"module": "keras.src.layers.pooling.max_pooling2d", "class_name": "MaxPooling2D", "config": {"name": "max_pooling2d", "trainable": true, "dtype": "float32", "pool_size": [2, 2], "padding": "valid", "strides": [2, 2], "data_format": "channels_last"}, "registered_name": "MaxPooling2D", "build_config": {"input_shape": [null, 30, 30, 32]}}, {"module": "keras.src.layers.convolutional.conv2d", "class_name": "Conv2D", "config": {"name": "conv2d_1", "trainable": true, "dtype": "float32", "filters": 64, "kernel_size": [3, 3], "strides": [1, 1], "padding": "valid", "data_format": "channels_last", "dilation_rate": [1, 1], "groups": 1, "activation": "relu", "use_bias": true, "kernel_initializer": {"module": "keras.src.initializers.random_initializers", "class_name": "GlorotUniform", "config": {"seed": null}, "registered_name": "GlorotUniform"}, "bias_initializer": {"module": "keras.src.initializers.constant_initializers", "class_name": "Zeros", "config": {}, "registered_name": "Zeros"}, "kernel_regularizer": null, "bias_regularizer": null, "activity_regularizer": null, "kernel_constraint": null, "bias_constraint": null}, "registered_name": "Conv2D", "build_config": {"input_shape": [null, 15, 15, 32]}}, {"module": "keras.src.layers.pooling.max_pooling2d", "class_name": "MaxPooling2D", "config": {"name": "max_pooling2d_1", "trainable": true, "dtype": "float32", "pool_size": [2, 2], "padding": "valid", "strides": [2, 2], "data_format": "channels_last"}, "registered_name": "MaxPooling2D", "build_config": {"input_shape": [null, 13, 13, 64]}}, {"module": "keras.src.layers.convolutional.conv2d", "class_name": "Conv2D", "config": {"name": "conv2d_2", "trainable": true, "dtype": "float32", "filters": 64, "kernel_size": [3, 3], "strides": [1, 1], "padding": "valid", "data_format": "channels_last", "dilation_rate": [1, 1], "groups": 1, "activation": "relu", "use_bias": true, "kernel_initializer": {"module": "keras.src.initializers.random_initializers", "class_name": "GlorotUniform", "config": {"seed": null}, "registered_name": "GlorotUniform"}, "bias_initializer": {"module": "keras.src.initializers.constant_initializers", "class_name": "Zeros", "config": {}, "registered_name": "Zeros"}, "kernel_regularizer": null, "bias_regularizer": null, "activity_regularizer": null, "kernel_constraint": null, "bias_constraint": null}, "registered_name": "Conv2D", "build_config": {"input_shape": [null, 6, 6, 64]}}], "build_input_shape": [null, 32, 32, 3]}, "registered_name": "Sequential", "build_config": {"input_shape": [null, 32, 32, 3]}}